…
      "outputs": [
        {
          "output_type": "stream",
          "name": "stdout",
          "text": [
            "Model: \"vgg16\"\n",
            "_________________________________________________________________\n",
            " Layer (type)                Output Shape              Param #   \n",
            "=================================================================\n",
            " input_1 (InputLayer)        [(None, 50, 50, 3)]       0         \n",
            "                                                                 \n",
            " block1_conv1 (Conv2D)       (None, 50, 50, 64)        1792      \n",
            "                                                                 \n",
            " block1_conv2 (Conv2D)       (None, 50, 50, 64)        36928     \n",
            "                                                                 \n",
            " block1_pool (MaxPooling2D)  (None, 25, 25, 64)        0         \n",
            "                                                                 \n",
            " block2_conv1 (Conv2D)       (None, 25, 25, 128)       73856     \n",
            "                                                                 \n",
            " block2_conv2 (Conv2D)       (None, 25, 25, 128)       147584    \n",
            "                                                                 \n",
            " block2_pool (MaxPooling2D)  (None, 12, 12, 128)       0         \n",
            "                                                                 \n",
            " block3_conv1 (Conv2D)       (None, 12, 12, 256)       295168    \n",
            "                                                                 \n",
            " block3_conv2 (Conv2D)       (None, 12, 12, 256)       590080    \n",
            "                                                                 \n",
            " block3_conv3 (Conv2D)       (None, 12, 12, 256)       590080    \n",
            "                                                                 \n",
            " block3_pool (MaxPooling2D)  (None, 6, 6, 256)         0         \n",
            "                                                                 \n",
            " block4_conv1 (Conv2D)       (None, 6, 6, 512)         1180160   \n",
            "                                                                 \n",
            " block4_conv2 (Conv2D)       (None, 6, 6, 512)         2359808   \n",
            "                                                                 \n",
            " block4_conv3 (Conv2D)       (None, 6, 6, 512)         2359808   \n",
            "                                                                 \n",
            " block4_pool (MaxPooling2D)  (None, 3, 3, 512)         0         \n",
            "                                                                 \n",
            " block5_conv1 (Conv2D)       (None, 3, 3, 512)         2359808   \n",
            "                                                                 \n",
            " block5_conv2 (Conv2D)       (None, 3, 3, 512)         2359808   \n",
            "                                                                 \n",
            " block5_conv3 (Conv2D)       (None, 3, 3, 512)         2359808   \n",
            "                                                                 \n",
            " block5_pool (MaxPooling2D)  (None, 1, 1, 512)         0         \n",
            "                                                                 \n",
            "=================================================================\n",
            "Total params: 14714688 (56.13 MB)\n",
            "Trainable params: 0 (0.00 Byte)\n",
            "Non-trainable params: 14714688 (56.13 MB)\n",
            "_________________________________________________________________\n"
…
